…
21-07-29 21:55:24.737 - INFO: Dataset [LRHRDataset - PBVS21_Train] is created.
21-07-29 21:55:24.737 - INFO: Number of train images: 951, iters: 119
21-07-29 21:55:24.737 - INFO: Total epochs needed: 1681 for iters 200,000
21-07-29 21:55:24.738 - INFO: Dataset [LRHRDataset - PBVS21_Val] is created.
21-07-29 21:55:24.738 - INFO: Number of val images in [PBVS21_Val]: 50
21-07-29 21:55:24.860 - INFO: Initialization method [kaiming]
21-07-29 21:55:36.152 - INFO: Network G structure: DataParallel - OurGen, with parameters: 14,479,141
21-07-29 21:55:36.152 - INFO: OurGen(
  (model): VKGen(
    (cn1): Sequential(
      (0): Conv2d(3, 128, kernel_size=(3, 3), stride=(1, 1), padding=(1, 1))
    )
    (cn2): Sequential(
      (0): Conv2d(128, 256, kernel_size=(5, 5), stride=(1, 1), padding=(2, 2))
    )
    (b1): BB(
      (b11): CSB(
        (conv0): Sequential(
          (0): Conv2d(128, 128, kernel_size=(1, 1), stride=(1, 1))
          (1): BatchNorm2d(128, eps=1e-05, momentum=0.1, affine=True, track_running_stats=True)
          (2): LeakyReLU(negative_slope=0.2, inplace=True)
        )
        (conv1): Sequential(
          (0): Conv2d(64, 64, kernel_size=(3, 3), stride=(1, 1), padding=(1, 1))
          (1): LeakyReLU(negative_slope=0.2, inplace=True)
        )
        (conv2): Sequential(
          (0): Conv2d(128, 64, kernel_size=(3, 3), stride=(1, 1), padding=(1, 1))
          (1): LeakyReLU(negative_slope=0.2, inplace=True)
        )
        (conv3): Sequential(
          (0): Conv2d(192, 64, kernel_size=(3, 3), stride=(1, 1), padding=(1, 1))
          (1): LeakyReLU(negative_slope=0.2, inplace=True)
        )
        (res1): Residual(
          (conv1): Sequential(
            (0): Conv2d(64, 64, kernel_size=(3, 3), stride=(1, 1), padding=(1, 1))
            (1): BatchNorm2d(64, eps=1e-05, momentum=0.1, affine=True, track_running_stats=True)
            (2): LeakyReLU(negative_slope=0.2, inplace=True)
          )
          (conv2): Sequential(
            (0): Conv2d(64, 64, kernel_size=(3, 3), stride=(1, 1), padding=(2, 2), dilation=(2, 2))
            (1): LeakyReLU(negative_slope=0.2, inplace=True)
          )
          (pa): PA(
            (c1): Sequential(
              (0): Conv2d(64, 64, kernel_size=(1, 1), stride=(1, 1))
              (1): LeakyReLU(negative_slope=0.2, inplace=True)
            )
          )
          (ca): CA(
            (g): AdaptiveAvgPool2d(output_size=(1, 1))
            (c1): Sequential(
              (0): Conv2d(64, 16, kernel_size=(1, 1), stride=(1, 1))
              (1): PReLU(num_parameters=1)
            )
            (c2): Sequential(
              (0): Conv2d(16, 64, kernel_size=(1, 1), stride=(1, 1))
              (1): Sigmoid()
            )
          )
        )
        (res2): Residual(
          (conv1): Sequential(
            (0): Conv2d(64, 64, kernel_size=(3, 3), stride=(1, 1), padding=(1, 1))
            (1): BatchNorm2d(64, eps=1e-05, momentum=0.1, affine=True, track_running_stats=True)
            (2): LeakyReLU(negative_slope=0.2, inplace=True)
          )
          (conv2): Sequential(
            (0): Conv2d(64, 64, kernel_size=(3, 3), stride=(1, 1), padding=(2, 2), dilation=(2, 2))
            (1): LeakyReLU(negative_slope=0.2, inplace=True)
          )
          (pa): PA(
            (c1): Sequential(
              (0): Conv2d(64, 64, kernel_size=(1, 1), stride=(1, 1))
              (1): LeakyReLU(negative_slope=0.2, inplace=True)
            )
          )
          (ca): CA(
            (g): AdaptiveAvgPool2d(output_size=(1, 1))
            (c1): Sequential(
              (0): Conv2d(64, 16, kernel_size=(1, 1), stride=(1, 1))
              (1): PReLU(num_parameters=1)
            )
            (c2): Sequential(
              (0): Conv2d(16, 64, kernel_size=(1, 1), stride=(1, 1))
              (1): Sigmoid()
            )
          )
        )
      )
      (b12): CSB(
        (conv0): Sequential(
          (0): Conv2d(256, 128, kernel_size=(1, 1), stride=(1, 1))
          (1): BatchNorm2d(128, eps=1e-05, momentum=0.1, affine=True, track_running_stats=True)
          (2): LeakyReLU(negative_slope=0.2, inplace=True)
        )
        (conv1): Sequential(
          (0): Conv2d(64, 64, kernel_size=(3, 3), stride=(1, 1), padding=(1, 1))
          (1): LeakyReLU(negative_slope=0.2, inplace=True)
        )
        (conv2): Sequential(
          (0): Conv2d(128, 64, kernel_size=(3, 3), stride=(1, 1), padding=(1, 1))
          (1): LeakyReLU(negative_slope=0.2, inplace=True)
        )
        (conv3): Sequential(
          (0): Conv2d(192, 64, kernel_size=(3, 3), stride=(1, 1), padding=(1, 1))
          (1): LeakyReLU(negative_slope=0.2, inplace=True)
        )
        (res1): Residual(
          (conv1): Sequential(
            (0): Conv2d(64, 64, kernel_size=(3, 3), stride=(1, 1), padding=(1, 1))
            (1): BatchNorm2d(64, eps=1e-05, momentum=0.1, affine=True, track_running_stats=True)
            (2): LeakyReLU(negative_slope=0.2, inplace=True)
          )
          (conv2): Sequential(
            (0): Conv2d(64, 64, kernel_size=(3, 3), stride=(1, 1), padding=(2, 2), dilation=(2, 2))
            (1): LeakyReLU(negative_slope=0.2, inplace=True)
          )
          (pa): PA(
            (c1): Sequential(
              (0): Conv2d(64, 64, kernel_size=(1, 1), stride=(1, 1))
              (1): LeakyReLU(negative_slope=0.2, inplace=True)
            )
          )
          (ca): CA(
            (g): AdaptiveAvgPool2d(output_size=(1, 1))
            (c1): Sequential(
              (0): Conv2d(64, 16, kernel_size=(1, 1), stride=(1, 1))
              (1): PReLU(num_parameters=1)
            )
            (c2): Sequential(
              (0): Conv2d(16, 64, kernel_size=(1, 1), stride=(1, 1))
              (1): Sigmoid()
            )
          )
        )
        (res2): Residual(
          (conv1): Sequential(
            (0): Conv2d(64, 64, kernel_size=(3, 3), stride=(1, 1), padding=(1, 1))
            (1): BatchNorm2d(64, eps=1e-05, momentum=0.1, affine=True, track_running_stats=True)
            (2): LeakyReLU(negative_slope=0.2, inplace=True)
          )
          (conv2): Sequential(
            (0): Conv2d(64, 64, kernel_size=(3, 3), stride=(1, 1), padding=(2, 2), dilation=(2, 2))
            (1): LeakyReLU(negative_slope=0.2, inplace=True)
          )
          (pa): PA(
            (c1): Sequential(
              (0): Conv2d(64, 64, kernel_size=(1, 1), stride=(1, 1))
              (1): LeakyReLU(negative_slope=0.2, inplace=True)
            )
          )
          (ca): CA(
            (g): AdaptiveAvgPool2d(output_size=(1, 1))
            (c1): Sequential(
              (0): Conv2d(64, 16, kernel_size=(1, 1), stride=(1, 1))
              (1): PReLU(num_parameters=1)
            )
            (c2): Sequential(
              (0): Conv2d(16, 64, kernel_size=(1, 1), stride=(1, 1))
              (1): Sigmoid()
            )
          )
        )
      )
      (b13): CSB(
        (conv0): Sequential(
          (0): Conv2d(384, 128, kernel_size=(1, 1), stride=(1, 1))
          (1): BatchNorm2d(128, eps=1e-05, momentum=0.1, affine=True, track_running_stats=True)
          (2): LeakyReLU(negative_slope=0.2, inplace=True)
        )
        (conv1): Sequential(
          (0): Conv2d(64, 64, kernel_size=(3, 3), stride=(1, 1), padding=(1, 1))
          (1): LeakyReLU(negative_slope=0.2, inplace=True)
        )
        (conv2): Sequential(
          (0): Conv2d(128, 64, kernel_size=(3, 3), stride=(1, 1), padding=(1, 1))
          (1): LeakyReLU(negative_slope=0.2, inplace=True)
        )
        (conv3): Sequential(
          (0): Conv2d(192, 64, kernel_size=(3, 3), stride=(1, 1), padding=(1, 1))
          (1): LeakyReLU(negative_slope=0.2, inplace=True)
        )
        (res1): Residual(
          (conv1): Sequential(
            (0): Conv2d(64, 64, kernel_size=(3, 3), stride=(1, 1), padding=(1, 1))
            (1): BatchNorm2d(64, eps=1e-05, momentum=0.1, affine=True, track_running_stats=True)
            (2): LeakyReLU(negative_slope=0.2, inplace=True)
          )
          (conv2): Sequential(
            (0): Conv2d(64, 64, kernel_size=(3, 3), stride=(1, 1), padding=(2, 2), dilation=(2, 2))
            (1): LeakyReLU(negative_slope=0.2, inplace=True)
          )
          (pa): PA(
            (c1): Sequential(
              (0): Conv2d(64, 64, kernel_size=(1, 1), stride=(1, 1))
              (1): LeakyReLU(negative_slope=0.2, inplace=True)
            )
          )
          (ca): CA(
            (g): AdaptiveAvgPool2d(output_size=(1, 1))
            (c1): Sequential(
              (0): Conv2d(64, 16, kernel_size=(1, 1), stride=(1, 1))
              (1): PReLU(num_parameters=1)
            )
            (c2): Sequential(
              (0): Conv2d(16, 64, kernel_size=(1, 1), stride=(1, 1))
              (1): Sigmoid()
            )
          )
        )
        (res2): Residual(
          (conv1): Sequential(
            (0): Conv2d(64, 64, kernel_size=(3, 3), stride=(1, 1), padding=(1, 1))
            (1): BatchNorm2d(64, eps=1e-05, momentum=0.1, affine=True, track_running_stats=True)
            (2): LeakyReLU(negative_slope=0.2, inplace=True)
          )
          (conv2): Sequential(
            (0): Conv2d(64, 64, kernel_size=(3, 3), stride=(1, 1), padding=(2, 2), dilation=(2, 2))
            (1): LeakyReLU(negative_slope=0.2, inplace=True)
          )
          (pa): PA(
            (c1): Sequential(
              (0): Conv2d(64, 64, kernel_size=(1, 1), stride=(1, 1))
              (1): LeakyReLU(negative_slope=0.2, inplace=True)
            )
          )
          (ca): CA(
            (g): AdaptiveAvgPool2d(output_size=(1, 1))
            (c1): Sequential(
              (0): Conv2d(64, 16, kernel_size=(1, 1), stride=(1, 1))
              (1): PReLU(num_parameters=1)
            )
            (c2): Sequential(
              (0): Conv2d(16, 64, kernel_size=(1, 1), stride=(1, 1))
              (1): Sigmoid()
            )
          )
        )
      )
      (c1): Sequential(
        (0): Conv2d(512, 256, kernel_size=(1, 1), stride=(1, 1))
        (1): LeakyReLU(negative_slope=0.2, inplace=True)
      )
    )
    (b2): BB(
      (b11): CSB(
        (conv0): Sequential(
          (0): Conv2d(128, 128, kernel_size=(1, 1), stride=(1, 1))
          (1): BatchNorm2d(128, eps=1e-05, momentum=0.1, affine=True, track_running_stats=True)
          (2): LeakyReLU(negative_slope=0.2, inplace=True)
        )
        (conv1): Sequential(
          (0): Conv2d(64, 64, kernel_size=(3, 3), stride=(1, 1), padding=(1, 1))
          (1): LeakyReLU(negative_slope=0.2, inplace=True)
        )
        (conv2): Sequential(
          (0): Conv2d(128, 64, kernel_size=(3, 3), stride=(1, 1), padding=(1, 1))
          (1): LeakyReLU(negative_slope=0.2, inplace=True)
        )
        (conv3): Sequential(
          (0): Conv2d(192, 64, kernel_size=(3, 3), stride=(1, 1), padding=(1, 1))
          (1): LeakyReLU(negative_slope=0.2, inplace=True)
        )
        (res1): Residual(
          (conv1): Sequential(
            (0): Conv2d(64, 64, kernel_size=(3, 3), stride=(1, 1), padding=(1, 1))
            (1): BatchNorm2d(64, eps=1e-05, momentum=0.1, affine=True, track_running_stats=True)
            (2): LeakyReLU(negative_slope=0.2, inplace=True)
          )
          (conv2): Sequential(
            (0): Conv2d(64, 64, kernel_size=(3, 3), stride=(1, 1), padding=(2, 2), dilation=(2, 2))
            (1): LeakyReLU(negative_slope=0.2, inplace=True)
          )
          (pa): PA(
            (c1): Sequential(
              (0): Conv2d(64, 64, kernel_size=(1, 1), stride=(1, 1))
              (1): LeakyReLU(negative_slope=0.2, inplace=True)
            )
          )
          (ca): CA(
            (g): AdaptiveAvgPool2d(output_size=(1, 1))
            (c1): Sequential(
              (0): Conv2d(64, 16, kernel_size=(1, 1), stride=(1, 1))
              (1): PReLU(num_parameters=1)
            )
            (c2): Sequential(
              (0): Conv2d(16, 64, kernel_size=(1, 1), stride=(1, 1))
              (1): Sigmoid()
            )
          )
        )
        (res2): Residual(
          (conv1): Sequential(
            (0): Conv2d(64, 64, kernel_size=(3, 3), stride=(1, 1), padding=(1, 1))
            (1): BatchNorm2d(64, eps=1e-05, momentum=0.1, affine=True, track_running_stats=True)
            (2): LeakyReLU(negative_slope=0.2, inplace=True)
          )
          (conv2): Sequential(
            (0): Conv2d(64, 64, kernel_size=(3, 3), stride=(1, 1), padding=(2, 2), dilation=(2, 2))
            (1): LeakyReLU(negative_slope=0.2, inplace=True)
          )
          (pa): PA(
            (c1): Sequential(
              (0): Conv2d(64, 64, kernel_size=(1, 1), stride=(1, 1))
              (1): LeakyReLU(negative_slope=0.2, inplace=True)
            )
          )
          (ca): CA(
            (g): AdaptiveAvgPool2d(output_size=(1, 1))
            (c1): Sequential(
              (0): Conv2d(64, 16, kernel_size=(1, 1), stride=(1, 1))
              (1): PReLU(num_parameters=1)
            )
            (c2): Sequential(
              (0): Conv2d(16, 64, kernel_size=(1, 1), stride=(1, 1))
              (1): Sigmoid()
            )
          )
        )
      )
      (b12): CSB(
        (conv0): Sequential(
          (0): Conv2d(256, 128, kernel_size=(1, 1), stride=(1, 1))
          (1): BatchNorm2d(128, eps=1e-05, momentum=0.1, affine=True, track_running_stats=True)
          (2): LeakyReLU(negative_slope=0.2, inplace=True)
        )
        (conv1): Sequential(
          (0): Conv2d(64, 64, kernel_size=(3, 3), stride=(1, 1), padding=(1, 1))
          (1): LeakyReLU(negative_slope=0.2, inplace=True)
        )
        (conv2): Sequential(
          (0): Conv2d(128, 64, kernel_size=(3, 3), stride=(1, 1), padding=(1, 1))
          (1): LeakyReLU(negative_slope=0.2, inplace=True)
        )
        (conv3): Sequential(
          (0): Conv2d(192, 64, kernel_size=(3, 3), stride=(1, 1), padding=(1, 1))
          (1): LeakyReLU(negative_slope=0.2, inplace=True)
        )
        (res1): Residual(
          (conv1): Sequential(
            (0): Conv2d(64, 64, kernel_size=(3, 3), stride=(1, 1), padding=(1, 1))
            (1): BatchNorm2d(64, eps=1e-05, momentum=0.1, affine=True, track_running_stats=True)
            (2): LeakyReLU(negative_slope=0.2, inplace=True)
          )
          (conv2): Sequential(
            (0): Conv2d(64, 64, kernel_size=(3, 3), stride=(1, 1), padding=(2, 2), dilation=(2, 2))
            (1): LeakyReLU(negative_slope=0.2, inplace=True)
          )
          (pa): PA(
            (c1): Sequential(
              (0): Conv2d(64, 64, kernel_size=(1, 1), stride=(1, 1))
              (1): LeakyReLU(negative_slope=0.2, inplace=True)
            )
          )
          (ca): CA(
            (g): AdaptiveAvgPool2d(output_size=(1, 1))
            (c1): Sequential(
              (0): Conv2d(64, 16, kernel_size=(1, 1), stride=(1, 1))
              (1): PReLU(num_parameters=1)
            )
            (c2): Sequential(
              (0): Conv2d(16, 64, kernel_size=(1, 1), stride=(1, 1))
              (1): Sigmoid()
            )
          )
        )
        (res2): Residual(
          (conv1): Sequential(
            (0): Conv2d(64, 64, kernel_size=(3, 3), stride=(1, 1), padding=(1, 1))
            (1): BatchNorm2d(64, eps=1e-05, momentum=0.1, affine=True, track_running_stats=True)
            (2): LeakyReLU(negative_slope=0.2, inplace=True)
          )
          (conv2): Sequential(
            (0): Conv2d(64, 64, kernel_size=(3, 3), stride=(1, 1), padding=(2, 2), dilation=(2, 2))
            (1): LeakyReLU(negative_slope=0.2, inplace=True)
          )
          (pa): PA(
            (c1): Sequential(
              (0): Conv2d(64, 64, kernel_size=(1, 1), stride=(1, 1))
              (1): LeakyReLU(negative_slope=0.2, inplace=True)
            )
          )
          (ca): CA(
            (g): AdaptiveAvgPool2d(output_size=(1, 1))
            (c1): Sequential(
              (0): Conv2d(64, 16, kernel_size=(1, 1), stride=(1, 1))
              (1): PReLU(num_parameters=1)
            )
            (c2): Sequential(
              (0): Conv2d(16, 64, kernel_size=(1, 1), stride=(1, 1))
              (1): Sigmoid()
            )
          )
        )
      )
      (b13): CSB(
        (conv0): Sequential(
          (0): Conv2d(384, 128, kernel_size=(1, 1), stride=(1, 1))
          (1): BatchNorm2d(128, eps=1e-05, momentum=0.1, affine=True, track_running_stats=True)
          (2): LeakyReLU(negative_slope=0.2, inplace=True)
        )
        (conv1): Sequential(
          (0): Conv2d(64, 64, kernel_size=(3, 3), stride=(1, 1), padding=(1, 1))
          (1): LeakyReLU(negative_slope=0.2, inplace=True)
        )
        (conv2): Sequential(
          (0): Conv2d(128, 64, kernel_size=(3, 3), stride=(1, 1), padding=(1, 1))
          (1): LeakyReLU(negative_slope=0.2, inplace=True)
        )
        (conv3): Sequential(
          (0): Conv2d(192, 64, kernel_size=(3, 3), stride=(1, 1), padding=(1, 1))
          (1): LeakyReLU(negative_slope=0.2, inplace=True)
        )
        (res1): Residual(
          (conv1): Sequential(
            (0): Conv2d(64, 64, kernel_size=(3, 3), stride=(1, 1), padding=(1, 1))
            (1): BatchNorm2d(64, eps=1e-05, momentum=0.1, affine=True, track_running_stats=True)
            (2): LeakyReLU(negative_slope=0.2, inplace=True)
          )
          (conv2): Sequential(
            (0): Conv2d(64, 64, kernel_size=(3, 3), stride=(1, 1), padding=(2, 2), dilation=(2, 2))
            (1): LeakyReLU(negative_slope=0.2, inplace=True)
          )
          (pa): PA(
            (c1): Sequential(
              (0): Conv2d(64, 64, kernel_size=(1, 1), stride=(1, 1))
              (1): LeakyReLU(negative_slope=0.2, inplace=True)
            )
          )
          (ca): CA(
            (g): AdaptiveAvgPool2d(output_size=(1, 1))
            (c1): Sequential(
              (0): Conv2d(64, 16, kernel_size=(1, 1), stride=(1, 1))
              (1): PReLU(num_parameters=1)
            )
            (c2): Sequential(
              (0): Conv2d(16, 64, kernel_size=(1, 1), stride=(1, 1))
              (1): Sigmoid()
            )
          )
        )
        (res2): Residual(
          (conv1): Sequential(
            (0): Conv2d(64, 64, kernel_size=(3, 3), stride=(1, 1), padding=(1, 1))
            (1): BatchNorm2d(64, eps=1e-05, momentum=0.1, affine=True, track_running_stats=True)
            (2): LeakyReLU(negative_slope=0.2, inplace=True)
          )
          (conv2): Sequential(
            (0): Conv2d(64, 64, kernel_size=(3, 3), stride=(1, 1), padding=(2, 2), dilation=(2, 2))
            (1): LeakyReLU(negative_slope=0.2, inplace=True)
          )
          (pa): PA(
            (c1): Sequential(
              (0): Conv2d(64, 64, kernel_size=(1, 1), stride=(1, 1))
              (1): LeakyReLU(negative_slope=0.2, inplace=True)
            )
          )
          (ca): CA(
            (g): AdaptiveAvgPool2d(output_size=(1, 1))
            (c1): Sequential(
              (0): Conv2d(64, 16, kernel_size=(1, 1), stride=(1, 1))
              (1): PReLU(num_parameters=1)
            )
            (c2): Sequential(
              (0): Conv2d(16, 64, kernel_size=(1, 1), stride=(1, 1))
              (1): Sigmoid()
            )
          )
        )
      )
      (c1): Sequential(
        (0): Conv2d(512, 256, kernel_size=(1, 1), stride=(1, 1))
        (1): LeakyReLU(negative_slope=0.2, inplace=True)
      )
    )
    (b3): BB(
      (b11): CSB(
        (conv0): Sequential(
          (0): Conv2d(128, 128, kernel_size=(1, 1), stride=(1, 1))
          (1): BatchNorm2d(128, eps=1e-05, momentum=0.1, affine=True, track_running_stats=True)
          (2): LeakyReLU(negative_slope=0.2, inplace=True)
        )
        (conv1): Sequential(
          (0): Conv2d(64, 64, kernel_size=(3, 3), stride=(1, 1), padding=(1, 1))
          (1): LeakyReLU(negative_slope=0.2, inplace=True)
        )
        (conv2): Sequential(
          (0): Conv2d(128, 64, kernel_size=(3, 3), stride=(1, 1), padding=(1, 1))
          (1): LeakyReLU(negative_slope=0.2, inplace=True)
        )
        (conv3): Sequential(
          (0): Conv2d(192, 64, kernel_size=(3, 3), stride=(1, 1), padding=(1, 1))
          (1): LeakyReLU(negative_slope=0.2, inplace=True)
        )
        (res1): Residual(
          (conv1): Sequential(
            (0): Conv2d(64, 64, kernel_size=(3, 3), stride=(1, 1), padding=(1, 1))
            (1): BatchNorm2d(64, eps=1e-05, momentum=0.1, affine=True, track_running_stats=True)
            (2): LeakyReLU(negative_slope=0.2, inplace=True)
          )
          (conv2): Sequential(
            (0): Conv2d(64, 64, kernel_size=(3, 3), stride=(1, 1), padding=(2, 2), dilation=(2, 2))
            (1): LeakyReLU(negative_slope=0.2, inplace=True)
          )
          (pa): PA(
            (c1): Sequential(
              (0): Conv2d(64, 64, kernel_size=(1, 1), stride=(1, 1))
              (1): LeakyReLU(negative_slope=0.2, inplace=True)
            )
          )
          (ca): CA(
            (g): AdaptiveAvgPool2d(output_size=(1, 1))
            (c1): Sequential(
              (0): Conv2d(64, 16, kernel_size=(1, 1), stride=(1, 1))
              (1): PReLU(num_parameters=1)
            )
            (c2): Sequential(
              (0): Conv2d(16, 64, kernel_size=(1, 1), stride=(1, 1))
              (1): Sigmoid()
            )
          )
        )
        (res2): Residual(
          (conv1): Sequential(
            (0): Conv2d(64, 64, kernel_size=(3, 3), stride=(1, 1), padding=(1, 1))
            (1): BatchNorm2d(64, eps=1e-05, momentum=0.1, affine=True, track_running_stats=True)
            (2): LeakyReLU(negative_slope=0.2, inplace=True)
          )
          (conv2): Sequential(
            (0): Conv2d(64, 64, kernel_size=(3, 3), stride=(1, 1), padding=(2, 2), dilation=(2, 2))
            (1): LeakyReLU(negative_slope=0.2, inplace=True)
          )
          (pa): PA(
            (c1): Sequential(
              (0): Conv2d(64, 64, kernel_size=(1, 1), stride=(1, 1))
              (1): LeakyReLU(negative_slope=0.2, inplace=True)
            )
          )
          (ca): CA(
            (g): AdaptiveAvgPool2d(output_size=(1, 1))
            (c1): Sequential(
              (0): Conv2d(64, 16, kernel_size=(1, 1), stride=(1, 1))
              (1): PReLU(num_parameters=1)
            )
            (c2): Sequential(
              (0): Conv2d(16, 64, kernel_size=(1, 1), stride=(1, 1))
              (1): Sigmoid()
            )
          )
        )
      )
      (b12): CSB(
        (conv0): Sequential(
          (0): Conv2d(256, 128, kernel_size=(1, 1), stride=(1, 1))
          (1): BatchNorm2d(128, eps=1e-05, momentum=0.1, affine=True, track_running_stats=True)
          (2): LeakyReLU(negative_slope=0.2, inplace=True)
        )
        (conv1): Sequential(
          (0): Conv2d(64, 64, kernel_size=(3, 3), stride=(1, 1), padding=(1, 1))
          (1): LeakyReLU(negative_slope=0.2, inplace=True)
        )
        (conv2): Sequential(
          (0): Conv2d(128, 64, kernel_size=(3, 3), stride=(1, 1), padding=(1, 1))
          (1): LeakyReLU(negative_slope=0.2, inplace=True)
        )
        (conv3): Sequential(
          (0): Conv2d(192, 64, kernel_size=(3, 3), stride=(1, 1), padding=(1, 1))
          (1): LeakyReLU(negative_slope=0.2, inplace=True)
        )
        (res1): Residual(
          (conv1): Sequential(
            (0): Conv2d(64, 64, kernel_size=(3, 3), stride=(1, 1), padding=(1, 1))
            (1): BatchNorm2d(64, eps=1e-05, momentum=0.1, affine=True, track_running_stats=True)
            (2): LeakyReLU(negative_slope=0.2, inplace=True)
          )
          (conv2): Sequential(
            (0): Conv2d(64, 64, kernel_size=(3, 3), stride=(1, 1), padding=(2, 2), dilation=(2, 2))
            (1): LeakyReLU(negative_slope=0.2, inplace=True)
          )
          (pa): PA(
            (c1): Sequential(
              (0): Conv2d(64, 64, kernel_size=(1, 1), stride=(1, 1))
              (1): LeakyReLU(negative_slope=0.2, inplace=True)
            )
          )
          (ca): CA(
            (g): AdaptiveAvgPool2d(output_size=(1, 1))
            (c1): Sequential(
              (0): Conv2d(64, 16, kernel_size=(1, 1), stride=(1, 1))
              (1): PReLU(num_parameters=1)
            )
            (c2): Sequential(
              (0): Conv2d(16, 64, kernel_size=(1, 1), stride=(1, 1))
              (1): Sigmoid()
            )
          )
        )
        (res2): Residual(
          (conv1): Sequential(
            (0): Conv2d(64, 64, kernel_size=(3, 3), stride=(1, 1), padding=(1, 1))
            (1): BatchNorm2d(64, eps=1e-05, momentum=0.1, affine=True, track_running_stats=True)
            (2): LeakyReLU(negative_slope=0.2, inplace=True)
          )
          (conv2): Sequential(
            (0): Conv2d(64, 64, kernel_size=(3, 3), stride=(1, 1), padding=(2, 2), dilation=(2, 2))
            (1): LeakyReLU(negative_slope=0.2, inplace=True)
          )
          (pa): PA(
            (c1): Sequential(
              (0): Conv2d(64, 64, kernel_size=(1, 1), stride=(1, 1))
              (1): LeakyReLU(negative_slope=0.2, inplace=True)
            )
          )
          (ca): CA(
            (g): AdaptiveAvgPool2d(output_size=(1, 1))
            (c1): Sequential(
              (0): Conv2d(64, 16, kernel_size=(1, 1), stride=(1, 1))
              (1): PReLU(num_parameters=1)
            )
            (c2): Sequential(
              (0): Conv2d(16, 64, kernel_size=(1, 1), stride=(1, 1))
              (1): Sigmoid()
            )
          )
        )
      )
      (b13): CSB(
        (conv0): Sequential(
          (0): Conv2d(384, 128, kernel_size=(1, 1), stride=(1, 1))
          (1): BatchNorm2d(128, eps=1e-05, momentum=0.1, affine=True, track_running_stats=True)
          (2): LeakyReLU(negative_slope=0.2, inplace=True)
        )
        (conv1): Sequential(
          (0): Conv2d(64, 64, kernel_size=(3, 3), stride=(1, 1), padding=(1, 1))
          (1): LeakyReLU(negative_slope=0.2, inplace=True)
        )
        (conv2): Sequential(
          (0): Conv2d(128, 64, kernel_size=(3, 3), stride=(1, 1), padding=(1, 1))
          (1): LeakyReLU(negative_slope=0.2, inplace=True)
        )
        (conv3): Sequential(
          (0): Conv2d(192, 64, kernel_size=(3, 3), stride=(1, 1), padding=(1, 1))
          (1): LeakyReLU(negative_slope=0.2, inplace=True)
        )
        (res1): Residual(
          (conv1): Sequential(
            (0): Conv2d(64, 64, kernel_size=(3, 3), stride=(1, 1), padding=(1, 1))
            (1): BatchNorm2d(64, eps=1e-05, momentum=0.1, affine=True, track_running_stats=True)
            (2): LeakyReLU(negative_slope=0.2, inplace=True)
          )
          (conv2): Sequential(
            (0): Conv2d(64, 64, kernel_size=(3, 3), stride=(1, 1), padding=(2, 2), dilation=(2, 2))
            (1): LeakyReLU(negative_slope=0.2, inplace=True)
          )
          (pa): PA(
            (c1): Sequential(
              (0): Conv2d(64, 64, kernel_size=(1, 1), stride=(1, 1))
              (1): LeakyReLU(negative_slope=0.2, inplace=True)
            )
          )
          (ca): CA(
            (g): AdaptiveAvgPool2d(output_size=(1, 1))
            (c1): Sequential(
              (0): Conv2d(64, 16, kernel_size=(1, 1), stride=(1, 1))
              (1): PReLU(num_parameters=1)
            )
            (c2): Sequential(
              (0): Conv2d(16, 64, kernel_size=(1, 1), stride=(1, 1))
              (1): Sigmoid()
            )
          )
        )
        (res2): Residual(
          (conv1): Sequential(
            (0): Conv2d(64, 64, kernel_size=(3, 3), stride=(1, 1), padding=(1, 1))
            (1): BatchNorm2d(64, eps=1e-05, momentum=0.1, affine=True, track_running_stats=True)
            (2): LeakyReLU(negative_slope=0.2, inplace=True)
          )
          (conv2): Sequential(
            (0): Conv2d(64, 64, kernel_size=(3, 3), stride=(1, 1), padding=(2, 2), dilation=(2, 2))
            (1): LeakyReLU(negative_slope=0.2, inplace=True)
          )
          (pa): PA(
            (c1): Sequential(
              (0): Conv2d(64, 64, kernel_size=(1, 1), stride=(1, 1))
              (1): LeakyReLU(negative_slope=0.2, inplace=True)
            )
          )
          (ca): CA(
            (g): AdaptiveAvgPool2d(output_size=(1, 1))
            (c1): Sequential(
              (0): Conv2d(64, 16, kernel_size=(1, 1), stride=(1, 1))
              (1): PReLU(num_parameters=1)
            )
            (c2): Sequential(
              (0): Conv2d(16, 64, kernel_size=(1, 1), stride=(1, 1))
              (1): Sigmoid()
            )
          )
        )
      )
      (c1): Sequential(
        (0): Conv2d(512, 256, kernel_size=(1, 1), stride=(1, 1))
        (1): LeakyReLU(negative_slope=0.2, inplace=True)
      )
    )
    (b4): BB(
      (b11): CSB(
        (conv0): Sequential(
          (0): Conv2d(128, 128, kernel_size=(1, 1), stride=(1, 1))
          (1): BatchNorm2d(128, eps=1e-05, momentum=0.1, affine=True, track_running_stats=True)
          (2): LeakyReLU(negative_slope=0.2, inplace=True)
        )
        (conv1): Sequential(
          (0): Conv2d(64, 64, kernel_size=(3, 3), stride=(1, 1), padding=(1, 1))
          (1): LeakyReLU(negative_slope=0.2, inplace=True)
        )
        (conv2): Sequential(
          (0): Conv2d(128, 64, kernel_size=(3, 3), stride=(1, 1), padding=(1, 1))
          (1): LeakyReLU(negative_slope=0.2, inplace=True)
        )
        (conv3): Sequential(
          (0): Conv2d(192, 64, kernel_size=(3, 3), stride=(1, 1), padding=(1, 1))
          (1): LeakyReLU(negative_slope=0.2, inplace=True)
        )
        (res1): Residual(
          (conv1): Sequential(
            (0): Conv2d(64, 64, kernel_size=(3, 3), stride=(1, 1), padding=(1, 1))
            (1): BatchNorm2d(64, eps=1e-05, momentum=0.1, affine=True, track_running_stats=True)
            (2): LeakyReLU(negative_slope=0.2, inplace=True)
          )
          (conv2): Sequential(
            (0): Conv2d(64, 64, kernel_size=(3, 3), stride=(1, 1), padding=(2, 2), dilation=(2, 2))
            (1): LeakyReLU(negative_slope=0.2, inplace=True)
          )
          (pa): PA(
            (c1): Sequential(
              (0): Conv2d(64, 64, kernel_size=(1, 1), stride=(1, 1))
              (1): LeakyReLU(negative_slope=0.2, inplace=True)
            )
          )
          (ca): CA(
            (g): AdaptiveAvgPool2d(output_size=(1, 1))
            (c1): Sequential(
              (0): Conv2d(64, 16, kernel_size=(1, 1), stride=(1, 1))
              (1): PReLU(num_parameters=1)
            )
            (c2): Sequential(
              (0): Conv2d(16, 64, kernel_size=(1, 1), stride=(1, 1))
              (1): Sigmoid()
            )
          )
        )
        (res2): Residual(
          (conv1): Sequential(
            (0): Conv2d(64, 64, kernel_size=(3, 3), stride=(1, 1), padding=(1, 1))
            (1): BatchNorm2d(64, eps=1e-05, momentum=0.1, affine=True, track_running_stats=True)
            (2): LeakyReLU(negative_slope=0.2, inplace=True)
          )
          (conv2): Sequential(
            (0): Conv2d(64, 64, kernel_size=(3, 3), stride=(1, 1), padding=(2, 2), dilation=(2, 2))
            (1): LeakyReLU(negative_slope=0.2, inplace=True)
          )
          (pa): PA(
            (c1): Sequential(
              (0): Conv2d(64, 64, kernel_size=(1, 1), stride=(1, 1))
              (1): LeakyReLU(negative_slope=0.2, inplace=True)
            )
          )
          (ca): CA(
            (g): AdaptiveAvgPool2d(output_size=(1, 1))
            (c1): Sequential(
              (0): Conv2d(64, 16, kernel_size=(1, 1), stride=(1, 1))
              (1): PReLU(num_parameters=1)
            )
            (c2): Sequential(
              (0): Conv2d(16, 64, kernel_size=(1, 1), stride=(1, 1))
              (1): Sigmoid()
            )
          )
        )
      )
      (b12): CSB(
        (conv0): Sequential(
          (0): Conv2d(256, 128, kernel_size=(1, 1), stride=(1, 1))
          (1): BatchNorm2d(128, eps=1e-05, momentum=0.1, affine=True, track_running_stats=True)
          (2): LeakyReLU(negative_slope=0.2, inplace=True)
        )
        (conv1): Sequential(
          (0): Conv2d(64, 64, kernel_size=(3, 3), stride=(1, 1), padding=(1, 1))
          (1): LeakyReLU(negative_slope=0.2, inplace=True)
        )
        (conv2): Sequential(
          (0): Conv2d(128, 64, kernel_size=(3, 3), stride=(1, 1), padding=(1, 1))
          (1): LeakyReLU(negative_slope=0.2, inplace=True)
        )
        (conv3): Sequential(
          (0): Conv2d(192, 64, kernel_size=(3, 3), stride=(1, 1), padding=(1, 1))
          (1): LeakyReLU(negative_slope=0.2, inplace=True)
        )
        (res1): Residual(
          (conv1): Sequential(
            (0): Conv2d(64, 64, kernel_size=(3, 3), stride=(1, 1), padding=(1, 1))
            (1): BatchNorm2d(64, eps=1e-05, momentum=0.1, affine=True, track_running_stats=True)
            (2): LeakyReLU(negative_slope=0.2, inplace=True)
          )
          (conv2): Sequential(
            (0): Conv2d(64, 64, kernel_size=(3, 3), stride=(1, 1), padding=(2, 2), dilation=(2, 2))
            (1): LeakyReLU(negative_slope=0.2, inplace=True)
          )
          (pa): PA(
            (c1): Sequential(
              (0): Conv2d(64, 64, kernel_size=(1, 1), stride=(1, 1))
              (1): LeakyReLU(negative_slope=0.2, inplace=True)
            )
          )
          (ca): CA(
            (g): AdaptiveAvgPool2d(output_size=(1, 1))
            (c1): Sequential(
              (0): Conv2d(64, 16, kernel_size=(1, 1), stride=(1, 1))
              (1): PReLU(num_parameters=1)
            )
            (c2): Sequential(
              (0): Conv2d(16, 64, kernel_size=(1, 1), stride=(1, 1))
              (1): Sigmoid()
            )
          )
        )
        (res2): Residual(
          (conv1): Sequential(
            (0): Conv2d(64, 64, kernel_size=(3, 3), stride=(1, 1), padding=(1, 1))
            (1): BatchNorm2d(64, eps=1e-05, momentum=0.1, affine=True, track_running_stats=True)
            (2): LeakyReLU(negative_slope=0.2, inplace=True)
          )
          (conv2): Sequential(
            (0): Conv2d(64, 64, kernel_size=(3, 3), stride=(1, 1), padding=(2, 2), dilation=(2, 2))
            (1): LeakyReLU(negative_slope=0.2, inplace=True)
          )
          (pa): PA(
            (c1): Sequential(
              (0): Conv2d(64, 64, kernel_size=(1, 1), stride=(1, 1))
              (1): LeakyReLU(negative_slope=0.2, inplace=True)
            )
          )
          (ca): CA(
            (g): AdaptiveAvgPool2d(output_size=(1, 1))
            (c1): Sequential(
              (0): Conv2d(64, 16, kernel_size=(1, 1), stride=(1, 1))
              (1): PReLU(num_parameters=1)
            )
            (c2): Sequential(
              (0): Conv2d(16, 64, kernel_size=(1, 1), stride=(1, 1))
              (1): Sigmoid()
            )
          )
        )
      )
      (b13): CSB(
        (conv0): Sequential(
          (0): Conv2d(384, 128, kernel_size=(1, 1), stride=(1, 1))
          (1): BatchNorm2d(128, eps=1e-05, momentum=0.1, affine=True, track_running_stats=True)
          (2): LeakyReLU(negative_slope=0.2, inplace=True)
        )
        (conv1): Sequential(
          (0): Conv2d(64, 64, kernel_size=(3, 3), stride=(1, 1), padding=(1, 1))
          (1): LeakyReLU(negative_slope=0.2, inplace=True)
        )
        (conv2): Sequential(
          (0): Conv2d(128, 64, kernel_size=(3, 3), stride=(1, 1), padding=(1, 1))
          (1): LeakyReLU(negative_slope=0.2, inplace=True)
        )
        (conv3): Sequential(
          (0): Conv2d(192, 64, kernel_size=(3, 3), stride=(1, 1), padding=(1, 1))
          (1): LeakyReLU(negative_slope=0.2, inplace=True)
        )
        (res1): Residual(
          (conv1): Sequential(
            (0): Conv2d(64, 64, kernel_size=(3, 3), stride=(1, 1), padding=(1, 1))
            (1): BatchNorm2d(64, eps=1e-05, momentum=0.1, affine=True, track_running_stats=True)
            (2): LeakyReLU(negative_slope=0.2, inplace=True)
          )
          (conv2): Sequential(
            (0): Conv2d(64, 64, kernel_size=(3, 3), stride=(1, 1), padding=(2, 2), dilation=(2, 2))
            (1): LeakyReLU(negative_slope=0.2, inplace=True)
          )
          (pa): PA(
            (c1): Sequential(
              (0): Conv2d(64, 64, kernel_size=(1, 1), stride=(1, 1))
              (1): LeakyReLU(negative_slope=0.2, inplace=True)
            )
          )
          (ca): CA(
            (g): AdaptiveAvgPool2d(output_size=(1, 1))
            (c1): Sequential(
              (0): Conv2d(64, 16, kernel_size=(1, 1), stride=(1, 1))
              (1): PReLU(num_parameters=1)
            )
            (c2): Sequential(
              (0): Conv2d(16, 64, kernel_size=(1, 1), stride=(1, 1))
              (1): Sigmoid()
            )
          )
        )
        (res2): Residual(
          (conv1): Sequential(
            (0): Conv2d(64, 64, kernel_size=(3, 3), stride=(1, 1), padding=(1, 1))
            (1): BatchNorm2d(64, eps=1e-05, momentum=0.1, affine=True, track_running_stats=True)
            (2): LeakyReLU(negative_slope=0.2, inplace=True)
          )
          (conv2): Sequential(
            (0): Conv2d(64, 64, kernel_size=(3, 3), stride=(1, 1), padding=(2, 2), dilation=(2, 2))
            (1): LeakyReLU(negative_slope=0.2, inplace=True)
          )
          (pa): PA(
            (c1): Sequential(
              (0): Conv2d(64, 64, kernel_size=(1, 1), stride=(1, 1))
              (1): LeakyReLU(negative_slope=0.2, inplace=True)
            )
          )
          (ca): CA(
            (g): AdaptiveAvgPool2d(output_size=(1, 1))
            (c1): Sequential(
              (0): Conv2d(64, 16, kernel_size=(1, 1), stride=(1, 1))
              (1): PReLU(num_parameters=1)
            )
            (c2): Sequential(
              (0): Conv2d(16, 64, kernel_size=(1, 1), stride=(1, 1))
              (1): Sigmoid()
            )
          )
        )
      )
      (c1): Sequential(
        (0): Conv2d(512, 256, kernel_size=(1, 1), stride=(1, 1))
        (1): LeakyReLU(negative_slope=0.2, inplace=True)
      )
    )
    (b5): BB(
      (b11): CSB(
        (conv0): Sequential(
          (0): Conv2d(128, 128, kernel_size=(1, 1), stride=(1, 1))
          (1): BatchNorm2d(128, eps=1e-05, momentum=0.1, affine=True, track_running_stats=True)
          (2): LeakyReLU(negative_slope=0.2, inplace=True)
        )
        (conv1): Sequential(
          (0): Conv2d(64, 64, kernel_size=(3, 3), stride=(1, 1), padding=(1, 1))
          (1): LeakyReLU(negative_slope=0.2, inplace=True)
        )
        (conv2): Sequential(
          (0): Conv2d(128, 64, kernel_size=(3, 3), stride=(1, 1), padding=(1, 1))
          (1): LeakyReLU(negative_slope=0.2, inplace=True)
        )
        (conv3): Sequential(
          (0): Conv2d(192, 64, kernel_size=(3, 3), stride=(1, 1), padding=(1, 1))
          (1): LeakyReLU(negative_slope=0.2, inplace=True)
        )
        (res1): Residual(
          (conv1): Sequential(
            (0): Conv2d(64, 64, kernel_size=(3, 3), stride=(1, 1), padding=(1, 1))
            (1): BatchNorm2d(64, eps=1e-05, momentum=0.1, affine=True, track_running_stats=True)
            (2): LeakyReLU(negative_slope=0.2, inplace=True)
          )
          (conv2): Sequential(
            (0): Conv2d(64, 64, kernel_size=(3, 3), stride=(1, 1), padding=(2, 2), dilation=(2, 2))
            (1): LeakyReLU(negative_slope=0.2, inplace=True)
          )
          (pa): PA(
            (c1): Sequential(
              (0): Conv2d(64, 64, kernel_size=(1, 1), stride=(1, 1))
              (1): LeakyReLU(negative_slope=0.2, inplace=True)
            )
          )
          (ca): CA(
            (g): AdaptiveAvgPool2d(output_size=(1, 1))
            (c1): Sequential(
              (0): Conv2d(64, 16, kernel_size=(1, 1), stride=(1, 1))
              (1): PReLU(num_parameters=1)
            )
            (c2): Sequential(
              (0): Conv2d(16, 64, kernel_size=(1, 1), stride=(1, 1))
              (1): Sigmoid()
            )
          )
        )
        (res2): Residual(
          (conv1): Sequential(
            (0): Conv2d(64, 64, kernel_size=(3, 3), stride=(1, 1), padding=(1, 1))
            (1): BatchNorm2d(64, eps=1e-05, momentum=0.1, affine=True, track_running_stats=True)
            (2): LeakyReLU(negative_slope=0.2, inplace=True)
          )
          (conv2): Sequential(
            (0): Conv2d(64, 64, kernel_size=(3, 3), stride=(1, 1), padding=(2, 2), dilation=(2, 2))
            (1): LeakyReLU(negative_slope=0.2, inplace=True)
          )
          (pa): PA(
            (c1): Sequential(
              (0): Conv2d(64, 64, kernel_size=(1, 1), stride=(1, 1))
              (1): LeakyReLU(negative_slope=0.2, inplace=True)
            )
          )
          (ca): CA(
            (g): AdaptiveAvgPool2d(output_size=(1, 1))
            (c1): Sequential(
              (0): Conv2d(64, 16, kernel_size=(1, 1), stride=(1, 1))
              (1): PReLU(num_parameters=1)
            )
            (c2): Sequential(
              (0): Conv2d(16, 64, kernel_size=(1, 1), stride=(1, 1))
              (1): Sigmoid()
            )
          )
        )
      )
      (b12): CSB(
        (conv0): Sequential(
          (0): Conv2d(256, 128, kernel_size=(1, 1), stride=(1, 1))
          (1): BatchNorm2d(128, eps=1e-05, momentum=0.1, affine=True, track_running_stats=True)
          (2): LeakyReLU(negative_slope=0.2, inplace=True)
        )
        (conv1): Sequential(
          (0): Conv2d(64, 64, kernel_size=(3, 3), stride=(1, 1), padding=(1, 1))
          (1): LeakyReLU(negative_slope=0.2, inplace=True)
        )
        (conv2): Sequential(
          (0): Conv2d(128, 64, kernel_size=(3, 3), stride=(1, 1), padding=(1, 1))
          (1): LeakyReLU(negative_slope=0.2, inplace=True)
        )
        (conv3): Sequential(
          (0): Conv2d(192, 64, kernel_size=(3, 3), stride=(1, 1), padding=(1, 1))
          (1): LeakyReLU(negative_slope=0.2, inplace=True)
        )
        (res1): Residual(
          (conv1): Sequential(
            (0): Conv2d(64, 64, kernel_size=(3, 3), stride=(1, 1), padding=(1, 1))
            (1): BatchNorm2d(64, eps=1e-05, momentum=0.1, affine=True, track_running_stats=True)
            (2): LeakyReLU(negative_slope=0.2, inplace=True)
          )
          (conv2): Sequential(
            (0): Conv2d(64, 64, kernel_size=(3, 3), stride=(1, 1), padding=(2, 2), dilation=(2, 2))
            (1): LeakyReLU(negative_slope=0.2, inplace=True)
          )
          (pa): PA(
            (c1): Sequential(
              (0): Conv2d(64, 64, kernel_size=(1, 1), stride=(1, 1))
              (1): LeakyReLU(negative_slope=0.2, inplace=True)
            )
          )
          (ca): CA(
            (g): AdaptiveAvgPool2d(output_size=(1, 1))
            (c1): Sequential(
              (0): Conv2d(64, 16, kernel_size=(1, 1), stride=(1, 1))
              (1): PReLU(num_parameters=1)
            )
            (c2): Sequential(
              (0): Conv2d(16, 64, kernel_size=(1, 1), stride=(1, 1))
              (1): Sigmoid()
            )
          )
        )
        (res2): Residual(
          (conv1): Sequential(
            (0): Conv2d(64, 64, kernel_size=(3, 3), stride=(1, 1), padding=(1, 1))
            (1): BatchNorm2d(64, eps=1e-05, momentum=0.1, affine=True, track_running_stats=True)
            (2): LeakyReLU(negative_slope=0.2, inplace=True)
          )
          (conv2): Sequential(
            (0): Conv2d(64, 64, kernel_size=(3, 3), stride=(1, 1), padding=(2, 2), dilation=(2, 2))
            (1): LeakyReLU(negative_slope=0.2, inplace=True)
          )
          (pa): PA(
            (c1): Sequential(
              (0): Conv2d(64, 64, kernel_size=(1, 1), stride=(1, 1))
              (1): LeakyReLU(negative_slope=0.2, inplace=True)
            )
          )
          (ca): CA(
            (g): AdaptiveAvgPool2d(output_size=(1, 1))
            (c1): Sequential(
              (0): Conv2d(64, 16, kernel_size=(1, 1), stride=(1, 1))
              (1): PReLU(num_parameters=1)
            )
            (c2): Sequential(
              (0): Conv2d(16, 64, kernel_size=(1, 1), stride=(1, 1))
              (1): Sigmoid()
            )
          )
        )
      )
      (b13): CSB(
        (conv0): Sequential(
          (0): Conv2d(384, 128, kernel_size=(1, 1), stride=(1, 1))
          (1): BatchNorm2d(128, eps=1e-05, momentum=0.1, affine=True, track_running_stats=True)
          (2): LeakyReLU(negative_slope=0.2, inplace=True)
        )
        (conv1): Sequential(
          (0): Conv2d(64, 64, kernel_size=(3, 3), stride=(1, 1), padding=(1, 1))
          (1): LeakyReLU(negative_slope=0.2, inplace=True)
        )
        (conv2): Sequential(
          (0): Conv2d(128, 64, kernel_size=(3, 3), stride=(1, 1), padding=(1, 1))
          (1): LeakyReLU(negative_slope=0.2, inplace=True)
        )
        (conv3): Sequential(
          (0): Conv2d(192, 64, kernel_size=(3, 3), stride=(1, 1), padding=(1, 1))
          (1): LeakyReLU(negative_slope=0.2, inplace=True)
        )
        (res1): Residual(
          (conv1): Sequential(
            (0): Conv2d(64, 64, kernel_size=(3, 3), stride=(1, 1), padding=(1, 1))
            (1): BatchNorm2d(64, eps=1e-05, momentum=0.1, affine=True, track_running_stats=True)
            (2): LeakyReLU(negative_slope=0.2, inplace=True)
          )
          (conv2): Sequential(
            (0): Conv2d(64, 64, kernel_size=(3, 3), stride=(1, 1), padding=(2, 2), dilation=(2, 2))
            (1): LeakyReLU(negative_slope=0.2, inplace=True)
          )
          (pa): PA(
            (c1): Sequential(
              (0): Conv2d(64, 64, kernel_size=(1, 1), stride=(1, 1))
              (1): LeakyReLU(negative_slope=0.2, inplace=True)
            )
          )
          (ca): CA(
            (g): AdaptiveAvgPool2d(output_size=(1, 1))
            (c1): Sequential(
              (0): Conv2d(64, 16, kernel_size=(1, 1), stride=(1, 1))
              (1): PReLU(num_parameters=1)
            )
            (c2): Sequential(
              (0): Conv2d(16, 64, kernel_size=(1, 1), stride=(1, 1))
              (1): Sigmoid()
            )
          )
        )
        (res2): Residual(
          (conv1): Sequential(
            (0): Conv2d(64, 64, kernel_size=(3, 3), stride=(1, 1), padding=(1, 1))
            (1): BatchNorm2d(64, eps=1e-05, momentum=0.1, affine=True, track_running_stats=True)
            (2): LeakyReLU(negative_slope=0.2, inplace=True)
          )
          (conv2): Sequential(
            (0): Conv2d(64, 64, kernel_size=(3, 3), stride=(1, 1), padding=(2, 2), dilation=(2, 2))
            (1): LeakyReLU(negative_slope=0.2, inplace=True)
          )
          (pa): PA(
            (c1): Sequential(
              (0): Conv2d(64, 64, kernel_size=(1, 1), stride=(1, 1))
              (1): LeakyReLU(negative_slope=0.2, inplace=True)
            )
          )
          (ca): CA(
            (g): AdaptiveAvgPool2d(output_size=(1, 1))
            (c1): Sequential(
              (0): Conv2d(64, 16, kernel_size=(1, 1), stride=(1, 1))
              (1): PReLU(num_parameters=1)
            )
            (c2): Sequential(
              (0): Conv2d(16, 64, kernel_size=(1, 1), stride=(1, 1))
              (1): Sigmoid()
            )
          )
        )
      )
      (c1): Sequential(
        (0): Conv2d(512, 256, kernel_size=(1, 1), stride=(1, 1))
        (1): LeakyReLU(negative_slope=0.2, inplace=True)
      )
    )
    (b6): BB(
      (b11): CSB(
        (conv0): Sequential(
          (0): Conv2d(128, 128, kernel_size=(1, 1), stride=(1, 1))
          (1): BatchNorm2d(128, eps=1e-05, momentum=0.1, affine=True, track_running_stats=True)
          (2): LeakyReLU(negative_slope=0.2, inplace=True)
        )
        (conv1): Sequential(
          (0): Conv2d(64, 64, kernel_size=(3, 3), stride=(1, 1), padding=(1, 1))
          (1): LeakyReLU(negative_slope=0.2, inplace=True)
        )
        (conv2): Sequential(
          (0): Conv2d(128, 64, kernel_size=(3, 3), stride=(1, 1), padding=(1, 1))
          (1): LeakyReLU(negative_slope=0.2, inplace=True)
        )
        (conv3): Sequential(
          (0): Conv2d(192, 64, kernel_size=(3, 3), stride=(1, 1), padding=(1, 1))
          (1): LeakyReLU(negative_slope=0.2, inplace=True)
        )
        (res1): Residual(
          (conv1): Sequential(
            (0): Conv2d(64, 64, kernel_size=(3, 3), stride=(1, 1), padding=(1, 1))
            (1): BatchNorm2d(64, eps=1e-05, momentum=0.1, affine=True, track_running_stats=True)
            (2): LeakyReLU(negative_slope=0.2, inplace=True)
          )
          (conv2): Sequential(
            (0): Conv2d(64, 64, kernel_size=(3, 3), stride=(1, 1), padding=(2, 2), dilation=(2, 2))
            (1): LeakyReLU(negative_slope=0.2, inplace=True)
          )
          (pa): PA(
            (c1): Sequential(
              (0): Conv2d(64, 64, kernel_size=(1, 1), stride=(1, 1))
              (1): LeakyReLU(negative_slope=0.2, inplace=True)
            )
          )
          (ca): CA(
            (g): AdaptiveAvgPool2d(output_size=(1, 1))
            (c1): Sequential(
              (0): Conv2d(64, 16, kernel_size=(1, 1), stride=(1, 1))
              (1): PReLU(num_parameters=1)
            )
            (c2): Sequential(
              (0): Conv2d(16, 64, kernel_size=(1, 1), stride=(1, 1))
              (1): Sigmoid()
            )
          )
        )
        (res2): Residual(
          (conv1): Sequential(
            (0): Conv2d(64, 64, kernel_size=(3, 3), stride=(1, 1), padding=(1, 1))
            (1): BatchNorm2d(64, eps=1e-05, momentum=0.1, affine=True, track_running_stats=True)
            (2): LeakyReLU(negative_slope=0.2, inplace=True)
          )
          (conv2): Sequential(
            (0): Conv2d(64, 64, kernel_size=(3, 3), stride=(1, 1), padding=(2, 2), dilation=(2, 2))
            (1): LeakyReLU(negative_slope=0.2, inplace=True)
          )
          (pa): PA(
            (c1): Sequential(
              (0): Conv2d(64, 64, kernel_size=(1, 1), stride=(1, 1))
              (1): LeakyReLU(negative_slope=0.2, inplace=True)
            )
          )
          (ca): CA(
            (g): AdaptiveAvgPool2d(output_size=(1, 1))
            (c1): Sequential(
              (0): Conv2d(64, 16, kernel_size=(1, 1), stride=(1, 1))
              (1): PReLU(num_parameters=1)
            )
            (c2): Sequential(
              (0): Conv2d(16, 64, kernel_size=(1, 1), stride=(1, 1))
              (1): Sigmoid()
            )
          )
        )
      )
      (b12): CSB(
        (conv0): Sequential(
          (0): Conv2d(256, 128, kernel_size=(1, 1), stride=(1, 1))
          (1): BatchNorm2d(128, eps=1e-05, momentum=0.1, affine=True, track_running_stats=True)
          (2): LeakyReLU(negative_slope=0.2, inplace=True)
        )
        (conv1): Sequential(
          (0): Conv2d(64, 64, kernel_size=(3, 3), stride=(1, 1), padding=(1, 1))
          (1): LeakyReLU(negative_slope=0.2, inplace=True)
        )
        (conv2): Sequential(
          (0): Conv2d(128, 64, kernel_size=(3, 3), stride=(1, 1), padding=(1, 1))
          (1): LeakyReLU(negative_slope=0.2, inplace=True)
        )
        (conv3): Sequential(
          (0): Conv2d(192, 64, kernel_size=(3, 3), stride=(1, 1), padding=(1, 1))
          (1): LeakyReLU(negative_slope=0.2, inplace=True)
        )
        (res1): Residual(
          (conv1): Sequential(
            (0): Conv2d(64, 64, kernel_size=(3, 3), stride=(1, 1), padding=(1, 1))
            (1): BatchNorm2d(64, eps=1e-05, momentum=0.1, affine=True, track_running_stats=True)
            (2): LeakyReLU(negative_slope=0.2, inplace=True)
          )
          (conv2): Sequential(
            (0): Conv2d(64, 64, kernel_size=(3, 3), stride=(1, 1), padding=(2, 2), dilation=(2, 2))
            (1): LeakyReLU(negative_slope=0.2, inplace=True)
          )
          (pa): PA(
            (c1): Sequential(
              (0): Conv2d(64, 64, kernel_size=(1, 1), stride=(1, 1))
              (1): LeakyReLU(negative_slope=0.2, inplace=True)
            )
          )
          (ca): CA(
            (g): AdaptiveAvgPool2d(output_size=(1, 1))
            (c1): Sequential(
              (0): Conv2d(64, 16, kernel_size=(1, 1), stride=(1, 1))
              (1): PReLU(num_parameters=1)
            )
            (c2): Sequential(
              (0): Conv2d(16, 64, kernel_size=(1, 1), stride=(1, 1))
              (1): Sigmoid()
            )
          )
        )
        (res2): Residual(
          (conv1): Sequential(
            (0): Conv2d(64, 64, kernel_size=(3, 3), stride=(1, 1), padding=(1, 1))
            (1): BatchNorm2d(64, eps=1e-05, momentum=0.1, affine=True, track_running_stats=True)
            (2): LeakyReLU(negative_slope=0.2, inplace=True)
          )
          (conv2): Sequential(
            (0): Conv2d(64, 64, kernel_size=(3, 3), stride=(1, 1), padding=(2, 2), dilation=(2, 2))
            (1): LeakyReLU(negative_slope=0.2, inplace=True)
          )
          (pa): PA(
            (c1): Sequential(
              (0): Conv2d(64, 64, kernel_size=(1, 1), stride=(1, 1))
              (1): LeakyReLU(negative_slope=0.2, inplace=True)
            )
          )
          (ca): CA(
            (g): AdaptiveAvgPool2d(output_size=(1, 1))
            (c1): Sequential(
              (0): Conv2d(64, 16, kernel_size=(1, 1), stride=(1, 1))
              (1): PReLU(num_parameters=1)
            )
            (c2): Sequential(
              (0): Conv2d(16, 64, kernel_size=(1, 1), stride=(1, 1))
              (1): Sigmoid()
            )
          )
        )
      )
      (b13): CSB(
        (conv0): Sequential(
          (0): Conv2d(384, 128, kernel_size=(1, 1), stride=(1, 1))
          (1): BatchNorm2d(128, eps=1e-05, momentum=0.1, affine=True, track_running_stats=True)
          (2): LeakyReLU(negative_slope=0.2, inplace=True)
        )
        (conv1): Sequential(
          (0): Conv2d(64, 64, kernel_size=(3, 3), stride=(1, 1), padding=(1, 1))
          (1): LeakyReLU(negative_slope=0.2, inplace=True)
        )
        (conv2): Sequential(
          (0): Conv2d(128, 64, kernel_size=(3, 3), stride=(1, 1), padding=(1, 1))
          (1): LeakyReLU(negative_slope=0.2, inplace=True)
        )
        (conv3): Sequential(
          (0): Conv2d(192, 64, kernel_size=(3, 3), stride=(1, 1), padding=(1, 1))
          (1): LeakyReLU(negative_slope=0.2, inplace=True)
        )
        (res1): Residual(
          (conv1): Sequential(
            (0): Conv2d(64, 64, kernel_size=(3, 3), stride=(1, 1), padding=(1, 1))
            (1): BatchNorm2d(64, eps=1e-05, momentum=0.1, affine=True, track_running_stats=True)
            (2): LeakyReLU(negative_slope=0.2, inplace=True)
          )
          (conv2): Sequential(
            (0): Conv2d(64, 64, kernel_size=(3, 3), stride=(1, 1), padding=(2, 2), dilation=(2, 2))
            (1): LeakyReLU(negative_slope=0.2, inplace=True)
          )
          (pa): PA(
            (c1): Sequential(
              (0): Conv2d(64, 64, kernel_size=(1, 1), stride=(1, 1))
              (1): LeakyReLU(negative_slope=0.2, inplace=True)
            )
          )
          (ca): CA(
            (g): AdaptiveAvgPool2d(output_size=(1, 1))
            (c1): Sequential(
              (0): Conv2d(64, 16, kernel_size=(1, 1), stride=(1, 1))
              (1): PReLU(num_parameters=1)
            )
            (c2): Sequential(
              (0): Conv2d(16, 64, kernel_size=(1, 1), stride=(1, 1))
              (1): Sigmoid()
            )
          )
        )
        (res2): Residual(
          (conv1): Sequential(
            (0): Conv2d(64, 64, kernel_size=(3, 3), stride=(1, 1), padding=(1, 1))
            (1): BatchNorm2d(64, eps=1e-05, momentum=0.1, affine=True, track_running_stats=True)
            (2): LeakyReLU(negative_slope=0.2, inplace=True)
          )
          (conv2): Sequential(
            (0): Conv2d(64, 64, kernel_size=(3, 3), stride=(1, 1), padding=(2, 2), dilation=(2, 2))
            (1): LeakyReLU(negative_slope=0.2, inplace=True)
          )
          (pa): PA(
            (c1): Sequential(
              (0): Conv2d(64, 64, kernel_size=(1, 1), stride=(1, 1))
              (1): LeakyReLU(negative_slope=0.2, inplace=True)
            )
          )
          (ca): CA(
            (g): AdaptiveAvgPool2d(output_size=(1, 1))
            (c1): Sequential(
              (0): Conv2d(64, 16, kernel_size=(1, 1), stride=(1, 1))
              (1): PReLU(num_parameters=1)
            )
            (c2): Sequential(
              (0): Conv2d(16, 64, kernel_size=(1, 1), stride=(1, 1))
              (1): Sigmoid()
            )
          )
        )
      )
      (c1): Sequential(
        (0): Conv2d(512, 256, kernel_size=(1, 1), stride=(1, 1))
        (1): LeakyReLU(negative_slope=0.2, inplace=True)
      )
    )
    (b7): BB(
      (b11): CSB(
        (conv0): Sequential(
          (0): Conv2d(128, 128, kernel_size=(1, 1), stride=(1, 1))
          (1): BatchNorm2d(128, eps=1e-05, momentum=0.1, affine=True, track_running_stats=True)
          (2): LeakyReLU(negative_slope=0.2, inplace=True)
        )
        (conv1): Sequential(
          (0): Conv2d(64, 64, kernel_size=(3, 3), stride=(1, 1), padding=(1, 1))
          (1): LeakyReLU(negative_slope=0.2, inplace=True)
        )
        (conv2): Sequential(
          (0): Conv2d(128, 64, kernel_size=(3, 3), stride=(1, 1), padding=(1, 1))
          (1): LeakyReLU(negative_slope=0.2, inplace=True)
        )
        (conv3): Sequential(
          (0): Conv2d(192, 64, kernel_size=(3, 3), stride=(1, 1), padding=(1, 1))
          (1): LeakyReLU(negative_slope=0.2, inplace=True)
        )
        (res1): Residual(
          (conv1): Sequential(
            (0): Conv2d(64, 64, kernel_size=(3, 3), stride=(1, 1), padding=(1, 1))
            (1): BatchNorm2d(64, eps=1e-05, momentum=0.1, affine=True, track_running_stats=True)
            (2): LeakyReLU(negative_slope=0.2, inplace=True)
          )
          (conv2): Sequential(
            (0): Conv2d(64, 64, kernel_size=(3, 3), stride=(1, 1), padding=(2, 2), dilation=(2, 2))
            (1): LeakyReLU(negative_slope=0.2, inplace=True)
          )
          (pa): PA(
            (c1): Sequential(
              (0): Conv2d(64, 64, kernel_size=(1, 1), stride=(1, 1))
              (1): LeakyReLU(negative_slope=0.2, inplace=True)
            )
          )
          (ca): CA(
            (g): AdaptiveAvgPool2d(output_size=(1, 1))
            (c1): Sequential(
              (0): Conv2d(64, 16, kernel_size=(1, 1), stride=(1, 1))
              (1): PReLU(num_parameters=1)
            )
            (c2): Sequential(
              (0): Conv2d(16, 64, kernel_size=(1, 1), stride=(1, 1))
              (1): Sigmoid()
            )
          )
        )
        (res2): Residual(
          (conv1): Sequential(
            (0): Conv2d(64, 64, kernel_size=(3, 3), stride=(1, 1), padding=(1, 1))
            (1): BatchNorm2d(64, eps=1e-05, momentum=0.1, affine=True, track_running_stats=True)
            (2): LeakyReLU(negative_slope=0.2, inplace=True)
          )
          (conv2): Sequential(
            (0): Conv2d(64, 64, kernel_size=(3, 3), stride=(1, 1), padding=(2, 2), dilation=(2, 2))
            (1): LeakyReLU(negative_slope=0.2, inplace=True)
          )
          (pa): PA(
            (c1): Sequential(
              (0): Conv2d(64, 64, kernel_size=(1, 1), stride=(1, 1))
              (1): LeakyReLU(negative_slope=0.2, inplace=True)
            )
          )
          (ca): CA(
            (g): AdaptiveAvgPool2d(output_size=(1, 1))
            (c1): Sequential(
              (0): Conv2d(64, 16, kernel_size=(1, 1), stride=(1, 1))
              (1): PReLU(num_parameters=1)
            )
            (c2): Sequential(
              (0): Conv2d(16, 64, kernel_size=(1, 1), stride=(1, 1))
              (1): Sigmoid()
            )
          )
        )
      )
      (b12): CSB(
        (conv0): Sequential(
          (0): Conv2d(256, 128, kernel_size=(1, 1), stride=(1, 1))
          (1): BatchNorm2d(128, eps=1e-05, momentum=0.1, affine=True, track_running_stats=True)
          (2): LeakyReLU(negative_slope=0.2, inplace=True)
        )
        (conv1): Sequential(
          (0): Conv2d(64, 64, kernel_size=(3, 3), stride=(1, 1), padding=(1, 1))
          (1): LeakyReLU(negative_slope=0.2, inplace=True)
        )
        (conv2): Sequential(
          (0): Conv2d(128, 64, kernel_size=(3, 3), stride=(1, 1), padding=(1, 1))
          (1): LeakyReLU(negative_slope=0.2, inplace=True)
        )
        (conv3): Sequential(
          (0): Conv2d(192, 64, kernel_size=(3, 3), stride=(1, 1), padding=(1, 1))
          (1): LeakyReLU(negative_slope=0.2, inplace=True)
        )
        (res1): Residual(
          (conv1): Sequential(
            (0): Conv2d(64, 64, kernel_size=(3, 3), stride=(1, 1), padding=(1, 1))
            (1): BatchNorm2d(64, eps=1e-05, momentum=0.1, affine=True, track_running_stats=True)
            (2): LeakyReLU(negative_slope=0.2, inplace=True)
          )
          (conv2): Sequential(
            (0): Conv2d(64, 64, kernel_size=(3, 3), stride=(1, 1), padding=(2, 2), dilation=(2, 2))
            (1): LeakyReLU(negative_slope=0.2, inplace=True)
          )
          (pa): PA(
            (c1): Sequential(
              (0): Conv2d(64, 64, kernel_size=(1, 1), stride=(1, 1))
              (1): LeakyReLU(negative_slope=0.2, inplace=True)
            )
          )
          (ca): CA(
            (g): AdaptiveAvgPool2d(output_size=(1, 1))
            (c1): Sequential(
              (0): Conv2d(64, 16, kernel_size=(1, 1), stride=(1, 1))
              (1): PReLU(num_parameters=1)
            )
            (c2): Sequential(
              (0): Conv2d(16, 64, kernel_size=(1, 1), stride=(1, 1))
              (1): Sigmoid()
            )
          )
        )
        (res2): Residual(
          (conv1): Sequential(
            (0): Conv2d(64, 64, kernel_size=(3, 3), stride=(1, 1), padding=(1, 1))
            (1): BatchNorm2d(64, eps=1e-05, momentum=0.1, affine=True, track_running_stats=True)
            (2): LeakyReLU(negative_slope=0.2, inplace=True)
          )
          (conv2): Sequential(
            (0): Conv2d(64, 64, kernel_size=(3, 3), stride=(1, 1), padding=(2, 2), dilation=(2, 2))
            (1): LeakyReLU(negative_slope=0.2, inplace=True)
          )
          (pa): PA(
            (c1): Sequential(
              (0): Conv2d(64, 64, kernel_size=(1, 1), stride=(1, 1))
              (1): LeakyReLU(negative_slope=0.2, inplace=True)
            )
          )
          (ca): CA(
            (g): AdaptiveAvgPool2d(output_size=(1, 1))
            (c1): Sequential(
              (0): Conv2d(64, 16, kernel_size=(1, 1), stride=(1, 1))
              (1): PReLU(num_parameters=1)
            )
            (c2): Sequential(
              (0): Conv2d(16, 64, kernel_size=(1, 1), stride=(1, 1))
              (1): Sigmoid()
            )
          )
        )
      )
      (b13): CSB(
        (conv0): Sequential(
          (0): Conv2d(384, 128, kernel_size=(1, 1), stride=(1, 1))
          (1): BatchNorm2d(128, eps=1e-05, momentum=0.1, affine=True, track_running_stats=True)
          (2): LeakyReLU(negative_slope=0.2, inplace=True)
        )
        (conv1): Sequential(
          (0): Conv2d(64, 64, kernel_size=(3, 3), stride=(1, 1), padding=(1, 1))
          (1): LeakyReLU(negative_slope=0.2, inplace=True)
        )
        (conv2): Sequential(
          (0): Conv2d(128, 64, kernel_size=(3, 3), stride=(1, 1), padding=(1, 1))
          (1): LeakyReLU(negative_slope=0.2, inplace=True)
        )
        (conv3): Sequential(
          (0): Conv2d(192, 64, kernel_size=(3, 3), stride=(1, 1), padding=(1, 1))
          (1): LeakyReLU(negative_slope=0.2, inplace=True)
        )
        (res1): Residual(
          (conv1): Sequential(
            (0): Conv2d(64, 64, kernel_size=(3, 3), stride=(1, 1), padding=(1, 1))
            (1): BatchNorm2d(64, eps=1e-05, momentum=0.1, affine=True, track_running_stats=True)
            (2): LeakyReLU(negative_slope=0.2, inplace=True)
          )
          (conv2): Sequential(
            (0): Conv2d(64, 64, kernel_size=(3, 3), stride=(1, 1), padding=(2, 2), dilation=(2, 2))
            (1): LeakyReLU(negative_slope=0.2, inplace=True)
          )
          (pa): PA(
            (c1): Sequential(
              (0): Conv2d(64, 64, kernel_size=(1, 1), stride=(1, 1))
              (1): LeakyReLU(negative_slope=0.2, inplace=True)
            )
          )
          (ca): CA(
            (g): AdaptiveAvgPool2d(output_size=(1, 1))
            (c1): Sequential(
              (0): Conv2d(64, 16, kernel_size=(1, 1), stride=(1, 1))
              (1): PReLU(num_parameters=1)
            )
            (c2): Sequential(
              (0): Conv2d(16, 64, kernel_size=(1, 1), stride=(1, 1))
              (1): Sigmoid()
            )
          )
        )
        (res2): Residual(
          (conv1): Sequential(
            (0): Conv2d(64, 64, kernel_size=(3, 3), stride=(1, 1), padding=(1, 1))
            (1): BatchNorm2d(64, eps=1e-05, momentum=0.1, affine=True, track_running_stats=True)
            (2): LeakyReLU(negative_slope=0.2, inplace=True)
          )
          (conv2): Sequential(
            (0): Conv2d(64, 64, kernel_size=(3, 3), stride=(1, 1), padding=(2, 2), dilation=(2, 2))
            (1): LeakyReLU(negative_slope=0.2, inplace=True)
          )
          (pa): PA(
            (c1): Sequential(
              (0): Conv2d(64, 64, kernel_size=(1, 1), stride=(1, 1))
              (1): LeakyReLU(negative_slope=0.2, inplace=True)
            )
          )
          (ca): CA(
            (g): AdaptiveAvgPool2d(output_size=(1, 1))
            (c1): Sequential(
              (0): Conv2d(64, 16, kernel_size=(1, 1), stride=(1, 1))
              (1): PReLU(num_parameters=1)
            )
            (c2): Sequential(
              (0): Conv2d(16, 64, kernel_size=(1, 1), stride=(1, 1))
              (1): Sigmoid()
            )
          )
        )
      )
      (c1): Sequential(
        (0): Conv2d(512, 256, kernel_size=(1, 1), stride=(1, 1))
        (1): LeakyReLU(negative_slope=0.2, inplace=True)
      )
    )
    (b8): BB(
      (b11): CSB(
        (conv0): Sequential(
          (0): Conv2d(128, 128, kernel_size=(1, 1), stride=(1, 1))
          (1): BatchNorm2d(128, eps=1e-05, momentum=0.1, affine=True, track_running_stats=True)
          (2): LeakyReLU(negative_slope=0.2, inplace=True)
        )
        (conv1): Sequential(
          (0): Conv2d(64, 64, kernel_size=(3, 3), stride=(1, 1), padding=(1, 1))
          (1): LeakyReLU(negative_slope=0.2, inplace=True)
        )
        (conv2): Sequential(
          (0): Conv2d(128, 64, kernel_size=(3, 3), stride=(1, 1), padding=(1, 1))
          (1): LeakyReLU(negative_slope=0.2, inplace=True)
        )
        (conv3): Sequential(
          (0): Conv2d(192, 64, kernel_size=(3, 3), stride=(1, 1), padding=(1, 1))
          (1): LeakyReLU(negative_slope=0.2, inplace=True)
        )
        (res1): Residual(
          (conv1): Sequential(
            (0): Conv2d(64, 64, kernel_size=(3, 3), stride=(1, 1), padding=(1, 1))
            (1): BatchNorm2d(64, eps=1e-05, momentum=0.1, affine=True, track_running_stats=True)
            (2): LeakyReLU(negative_slope=0.2, inplace=True)
          )
          (conv2): Sequential(
            (0): Conv2d(64, 64, kernel_size=(3, 3), stride=(1, 1), padding=(2, 2), dilation=(2, 2))
            (1): LeakyReLU(negative_slope=0.2, inplace=True)
          )
          (pa): PA(
            (c1): Sequential(
              (0): Conv2d(64, 64, kernel_size=(1, 1), stride=(1, 1))
              (1): LeakyReLU(negative_slope=0.2, inplace=True)
            )
          )
          (ca): CA(
            (g): AdaptiveAvgPool2d(output_size=(1, 1))
            (c1): Sequential(
              (0): Conv2d(64, 16, kernel_size=(1, 1), stride=(1, 1))
              (1): PReLU(num_parameters=1)
            )
            (c2): Sequential(
              (0): Conv2d(16, 64, kernel_size=(1, 1), stride=(1, 1))
              (1): Sigmoid()
            )
          )
        )
        (res2): Residual(
          (conv1): Sequential(
            (0): Conv2d(64, 64, kernel_size=(3, 3), stride=(1, 1), padding=(1, 1))
            (1): BatchNorm2d(64, eps=1e-05, momentum=0.1, affine=True, track_running_stats=True)
            (2): LeakyReLU(negative_slope=0.2, inplace=True)
          )
          (conv2): Sequential(
            (0): Conv2d(64, 64, kernel_size=(3, 3), stride=(1, 1), padding=(2, 2), dilation=(2, 2))
            (1): LeakyReLU(negative_slope=0.2, inplace=True)
          )
          (pa): PA(
            (c1): Sequential(
              (0): Conv2d(64, 64, kernel_size=(1, 1), stride=(1, 1))
              (1): LeakyReLU(negative_slope=0.2, inplace=True)
            )
          )
          (ca): CA(
            (g): AdaptiveAvgPool2d(output_size=(1, 1))
            (c1): Sequential(
              (0): Conv2d(64, 16, kernel_size=(1, 1), stride=(1, 1))
              (1): PReLU(num_parameters=1)
            )
            (c2): Sequential(
              (0): Conv2d(16, 64, kernel_size=(1, 1), stride=(1, 1))
              (1): Sigmoid()
            )
          )
        )
      )
      (b12): CSB(
        (conv0): Sequential(
          (0): Conv2d(256, 128, kernel_size=(1, 1), stride=(1, 1))
          (1): BatchNorm2d(128, eps=1e-05, momentum=0.1, affine=True, track_running_stats=True)
          (2): LeakyReLU(negative_slope=0.2, inplace=True)
        )
        (conv1): Sequential(
          (0): Conv2d(64, 64, kernel_size=(3, 3), stride=(1, 1), padding=(1, 1))
          (1): LeakyReLU(negative_slope=0.2, inplace=True)
        )
        (conv2): Sequential(
          (0): Conv2d(128, 64, kernel_size=(3, 3), stride=(1, 1), padding=(1, 1))
          (1): LeakyReLU(negative_slope=0.2, inplace=True)
        )
        (conv3): Sequential(
          (0): Conv2d(192, 64, kernel_size=(3, 3), stride=(1, 1), padding=(1, 1))
          (1): LeakyReLU(negative_slope=0.2, inplace=True)
        )
        (res1): Residual(
          (conv1): Sequential(
            (0): Conv2d(64, 64, kernel_size=(3, 3), stride=(1, 1), padding=(1, 1))
            (1): BatchNorm2d(64, eps=1e-05, momentum=0.1, affine=True, track_running_stats=True)
            (2): LeakyReLU(negative_slope=0.2, inplace=True)
          )
          (conv2): Sequential(
            (0): Conv2d(64, 64, kernel_size=(3, 3), stride=(1, 1), padding=(2, 2), dilation=(2, 2))
            (1): LeakyReLU(negative_slope=0.2, inplace=True)
          )
          (pa): PA(
            (c1): Sequential(
              (0): Conv2d(64, 64, kernel_size=(1, 1), stride=(1, 1))
              (1): LeakyReLU(negative_slope=0.2, inplace=True)
            )
          )
          (ca): CA(
            (g): AdaptiveAvgPool2d(output_size=(1, 1))
            (c1): Sequential(
              (0): Conv2d(64, 16, kernel_size=(1, 1), stride=(1, 1))
              (1): PReLU(num_parameters=1)
            )
            (c2): Sequential(
              (0): Conv2d(16, 64, kernel_size=(1, 1), stride=(1, 1))
              (1): Sigmoid()
            )
          )
        )
        (res2): Residual(
          (conv1): Sequential(
            (0): Conv2d(64, 64, kernel_size=(3, 3), stride=(1, 1), padding=(1, 1))
            (1): BatchNorm2d(64, eps=1e-05, momentum=0.1, affine=True, track_running_stats=True)
            (2): LeakyReLU(negative_slope=0.2, inplace=True)
          )
          (conv2): Sequential(
            (0): Conv2d(64, 64, kernel_size=(3, 3), stride=(1, 1), padding=(2, 2), dilation=(2, 2))
            (1): LeakyReLU(negative_slope=0.2, inplace=True)
          )
          (pa): PA(
            (c1): Sequential(
              (0): Conv2d(64, 64, kernel_size=(1, 1), stride=(1, 1))
              (1): LeakyReLU(negative_slope=0.2, inplace=True)
            )
          )
          (ca): CA(
            (g): AdaptiveAvgPool2d(output_size=(1, 1))
            (c1): Sequential(
              (0): Conv2d(64, 16, kernel_size=(1, 1), stride=(1, 1))
              (1): PReLU(num_parameters=1)
            )
            (c2): Sequential(
              (0): Conv2d(16, 64, kernel_size=(1, 1), stride=(1, 1))
              (1): Sigmoid()
            )
          )
        )
      )
      (b13): CSB(
        (conv0): Sequential(
          (0): Conv2d(384, 128, kernel_size=(1, 1), stride=(1, 1))
          (1): BatchNorm2d(128, eps=1e-05, momentum=0.1, affine=True, track_running_stats=True)
          (2): LeakyReLU(negative_slope=0.2, inplace=True)
        )
        (conv1): Sequential(
          (0): Conv2d(64, 64, kernel_size=(3, 3), stride=(1, 1), padding=(1, 1))
          (1): LeakyReLU(negative_slope=0.2, inplace=True)
        )
        (conv2): Sequential(
          (0): Conv2d(128, 64, kernel_size=(3, 3), stride=(1, 1), padding=(1, 1))
          (1): LeakyReLU(negative_slope=0.2, inplace=True)
        )
        (conv3): Sequential(
          (0): Conv2d(192, 64, kernel_size=(3, 3), stride=(1, 1), padding=(1, 1))
          (1): LeakyReLU(negative_slope=0.2, inplace=True)
        )
        (res1): Residual(
          (conv1): Sequential(
            (0): Conv2d(64, 64, kernel_size=(3, 3), stride=(1, 1), padding=(1, 1))
            (1): BatchNorm2d(64, eps=1e-05, momentum=0.1, affine=True, track_running_stats=True)
            (2): LeakyReLU(negative_slope=0.2, inplace=True)
          )
          (conv2): Sequential(
            (0): Conv2d(64, 64, kernel_size=(3, 3), stride=(1, 1), padding=(2, 2), dilation=(2, 2))
            (1): LeakyReLU(negative_slope=0.2, inplace=True)
          )
          (pa): PA(
            (c1): Sequential(
              (0): Conv2d(64, 64, kernel_size=(1, 1), stride=(1, 1))
              (1): LeakyReLU(negative_slope=0.2, inplace=True)
            )
          )
          (ca): CA(
            (g): AdaptiveAvgPool2d(output_size=(1, 1))
            (c1): Sequential(
              (0): Conv2d(64, 16, kernel_size=(1, 1), stride=(1, 1))
              (1): PReLU(num_parameters=1)
            )
            (c2): Sequential(
              (0): Conv2d(16, 64, kernel_size=(1, 1), stride=(1, 1))
              (1): Sigmoid()
            )
          )
        )
        (res2): Residual(
          (conv1): Sequential(
            (0): Conv2d(64, 64, kernel_size=(3, 3), stride=(1, 1), padding=(1, 1))
            (1): BatchNorm2d(64, eps=1e-05, momentum=0.1, affine=True, track_running_stats=True)
            (2): LeakyReLU(negative_slope=0.2, inplace=True)
          )
          (conv2): Sequential(
            (0): Conv2d(64, 64, kernel_size=(3, 3), stride=(1, 1), padding=(2, 2), dilation=(2, 2))
            (1): LeakyReLU(negative_slope=0.2, inplace=True)
          )
          (pa): PA(
            (c1): Sequential(
              (0): Conv2d(64, 64, kernel_size=(1, 1), stride=(1, 1))
              (1): LeakyReLU(negative_slope=0.2, inplace=True)
            )
          )
          (ca): CA(
            (g): AdaptiveAvgPool2d(output_size=(1, 1))
            (c1): Sequential(
              (0): Conv2d(64, 16, kernel_size=(1, 1), stride=(1, 1))
              (1): PReLU(num_parameters=1)
            )
            (c2): Sequential(
              (0): Conv2d(16, 64, kernel_size=(1, 1), stride=(1, 1))
              (1): Sigmoid()
            )
          )
        )
      )
      (c1): Sequential(
        (0): Conv2d(512, 256, kernel_size=(1, 1), stride=(1, 1))
        (1): LeakyReLU(negative_slope=0.2, inplace=True)
      )
    )
    (c1): Sequential(
      (0): Conv2d(256, 128, kernel_size=(1, 1), stride=(1, 1))
      (1): LeakyReLU(negative_slope=0.2, inplace=True)
    )
    (c2): Sequential(
      (0): Conv2d(256, 128, kernel_size=(1, 1), stride=(1, 1))
      (1): LeakyReLU(negative_slope=0.2, inplace=True)
    )
    (c3): Sequential(
      (0): Conv2d(256, 128, kernel_size=(1, 1), stride=(1, 1))
      (1): LeakyReLU(negative_slope=0.2, inplace=True)
    )
    (c4): Sequential(
      (0): Conv2d(256, 128, kernel_size=(1, 1), stride=(1, 1))
      (1): LeakyReLU(negative_slope=0.2, inplace=True)
    )
    (c5): Sequential(
      (0): Conv2d(256, 128, kernel_size=(1, 1), stride=(1, 1))
      (1): LeakyReLU(negative_slope=0.2, inplace=True)
    )
    (c6): Sequential(
      (0): Conv2d(256, 128, kernel_size=(1, 1), stride=(1, 1))
      (1): LeakyReLU(negative_slope=0.2, inplace=True)
    )
    (c7): Sequential(
      (0): Conv2d(256, 128, kernel_size=(1, 1), stride=(1, 1))
      (1): LeakyReLU(negative_slope=0.2, inplace=True)
    )
    (c8): Sequential(
      (0): Conv2d(384, 128, kernel_size=(1, 1), stride=(1, 1))
      (1): LeakyReLU(negative_slope=0.2, inplace=True)
    )
    (grl): Upsample(scale_factor=4.0, mode=bicubic)
    (ups1): OurUpSample(
      (U1): Sequential(
        (0): Conv2d(128, 2048, kernel_size=(3, 3), stride=(1, 1), padding=(1, 1))
        (1): PixelShuffle(upscale_factor=4)
        (2): BatchNorm2d(128, eps=1e-05, momentum=0.1, affine=True, track_running_stats=True)
        (3): ReLU(inplace=True)
      )
      (co1): Sequential(
        (0): Conv2d(128, 16, kernel_size=(1, 1), stride=(1, 1))
        (1): PReLU(num_parameters=1)
      )
      (co2): Sequential(
        (0): Conv2d(16, 3, kernel_size=(3, 3), stride=(1, 1), padding=(1, 1))
        (1): PReLU(num_parameters=1)
      )
    )
  )
)
21-07-29 21:55:36.165 - INFO: Model [ourModel] is created.
21-07-29 21:55:36.165 - INFO: Start training from epoch: 0, iter: 0
21-07-29 21:57:26.878 - INFO: <epoch:  1, iter:     200, lr:2.000e-04> l_pix: 2.3400e-02 
21-07-29 21:59:17.710 - INFO: <epoch:  3, iter:     400, lr:2.000e-04> l_pix: 2.0679e-02 
…
